…
117       81.1      2.74e-02    1.12e-02    1.00e-04  2.07e-02    1.27e-01  96.18     3.17e-01  89.47    
118       81.0      2.10e-02    9.89e-03    1.00e-04  2.16e-02    1.29e-01  95.90     3.19e-01  89.47    
119       81.0      1.36e-02    8.15e-03    1.00e-04  2.14e-02    1.28e-01  96.02     3.19e-01  89.58    
120       81.6      2.02e-02    1.23e-02    1.00e-04  2.11e-02    1.26e-01  96.12     3.20e-01  89.48    
Time elapsed:  9804.232657432556
Training complete. Now testing...

testing loss: 3.32e-01     testing accuracy: 89.08    
RKNet(
  (dynamicBlocks): ModuleList(
    (0): rk4(
      (controlLayers): ModuleList(
        (0): DoubleSymLayer(
          (conv): Conv2d(16, 16, kernel_size=(3, 3), stride=(1, 1), padding=(1, 1))
          (act): ReLU()
          (normLayer): TvNorm()
          (convt): ConvTranspose2d(16, 16, kernel_size=(3, 3), stride=(1, 1), padding=(1, 1))
        )
        (1): DoubleSymLayer(
          (conv): Conv2d(16, 16, kernel_size=(3, 3), stride=(1, 1), padding=(1, 1))
          (act): ReLU()
          (normLayer): TvNorm()
          (convt): ConvTranspose2d(16, 16, kernel_size=(3, 3), stride=(1, 1), padding=(1, 1))
        )
        (2): DoubleSymLayer(
          (conv): Conv2d(16, 16, kernel_size=(3, 3), stride=(1, 1), padding=(1, 1))
          (act): ReLU()
          (normLayer): TvNorm()
          (convt): ConvTranspose2d(16, 16, kernel_size=(3, 3), stride=(1, 1), padding=(1, 1))
        )
        (3): DoubleSymLayer(
          (conv): Conv2d(16, 16, kernel_size=(3, 3), stride=(1, 1), padding=(1, 1))
          (act): ReLU()
          (normLayer): TvNorm()
          (convt): ConvTranspose2d(16, 16, kernel_size=(3, 3), stride=(1, 1), padding=(1, 1))
        )
        (4): DoubleSymLayer(
          (conv): Conv2d(16, 16, kernel_size=(3, 3), stride=(1, 1), padding=(1, 1))
          (act): ReLU()
          (normLayer): TvNorm()
          (convt): ConvTranspose2d(16, 16, kernel_size=(3, 3), stride=(1, 1), padding=(1, 1))
        )
      )
    )
    (1): rk4(
      (controlLayers): ModuleList(
        (0): DoubleSymLayer(
          (conv): Conv2d(32, 32, kernel_size=(3, 3), stride=(1, 1), padding=(1, 1))
          (act): ReLU()
          (normLayer): TvNorm()
          (convt): ConvTranspose2d(32, 32, kernel_size=(3, 3), stride=(1, 1), padding=(1, 1))
        )
        (1): DoubleSymLayer(
          (conv): Conv2d(32, 32, kernel_size=(3, 3), stride=(1, 1), padding=(1, 1))
          (act): ReLU()
          (normLayer): TvNorm()
          (convt): ConvTranspose2d(32, 32, kernel_size=(3, 3), stride=(1, 1), padding=(1, 1))
        )
        (2): DoubleSymLayer(
          (conv): Conv2d(32, 32, kernel_size=(3, 3), stride=(1, 1), padding=(1, 1))
          (act): ReLU()
          (normLayer): TvNorm()
          (convt): ConvTranspose2d(32, 32, kernel_size=(3, 3), stride=(1, 1), padding=(1, 1))
        )
        (3): DoubleSymLayer(
          (conv): Conv2d(32, 32, kernel_size=(3, 3), stride=(1, 1), padding=(1, 1))
          (act): ReLU()
          (normLayer): TvNorm()
          (convt): ConvTranspose2d(32, 32, kernel_size=(3, 3), stride=(1, 1), padding=(1, 1))
        )
        (4): DoubleSymLayer(
          (conv): Conv2d(32, 32, kernel_size=(3, 3), stride=(1, 1), padding=(1, 1))
          (act): ReLU()
          (normLayer): TvNorm()
          (convt): ConvTranspose2d(32, 32, kernel_size=(3, 3), stride=(1, 1), padding=(1, 1))
        )
      )
    )
    (2): rk4(
      (controlLayers): ModuleList(
        (0): DoubleSymLayer(
          (conv): Conv2d(64, 64, kernel_size=(3, 3), stride=(1, 1), padding=(1, 1))
          (act): ReLU()
          (normLayer): TvNorm()
          (convt): ConvTranspose2d(64, 64, kernel_size=(3, 3), stride=(1, 1), padding=(1, 1))
        )
        (1): DoubleSymLayer(
          (conv): Conv2d(64, 64, kernel_size=(3, 3), stride=(1, 1), padding=(1, 1))
          (act): ReLU()
          (normLayer): TvNorm()
          (convt): ConvTranspose2d(64, 64, kernel_size=(3, 3), stride=(1, 1), padding=(1, 1))
        )
        (2): DoubleSymLayer(
          (conv): Conv2d(64, 64, kernel_size=(3, 3), stride=(1, 1), padding=(1, 1))
          (act): ReLU()
          (normLayer): TvNorm()
          (convt): ConvTranspose2d(64, 64, kernel_size=(3, 3), stride=(1, 1), padding=(1, 1))
        )
        (3): DoubleSymLayer(
          (conv): Conv2d(64, 64, kernel_size=(3, 3), stride=(1, 1), padding=(1, 1))
          (act): ReLU()
          (normLayer): TvNorm()
          (convt): ConvTranspose2d(64, 64, kernel_size=(3, 3), stride=(1, 1), padding=(1, 1))
        )
        (4): DoubleSymLayer(
          (conv): Conv2d(64, 64, kernel_size=(3, 3), stride=(1, 1), padding=(1, 1))
          (act): ReLU()
          (normLayer): TvNorm()
          (convt): ConvTranspose2d(64, 64, kernel_size=(3, 3), stride=(1, 1), padding=(1, 1))
        )
      )
    )
  )
  (connectors): ModuleList(
    (0): ConnectingLayer(
      (conv): Conv2d(16, 32, kernel_size=(1, 1), stride=(1, 1))
      (act): ReLU()
      (normLayer): BatchNorm2d(32, eps=0.0001, momentum=0.1, affine=True, track_running_stats=True)
    )
    (1): ConnectingLayer(
      (conv): Conv2d(32, 64, kernel_size=(1, 1), stride=(1, 1))
      (act): ReLU()
      (normLayer): BatchNorm2d(64, eps=0.0001, momentum=0.1, affine=True, track_running_stats=True)
    )
    (2): ConnectingLayer(
      (conv): Conv2d(64, 64, kernel_size=(1, 1), stride=(1, 1))
      (act): ReLU()
      (normLayer): BatchNorm2d(64, eps=0.0001, momentum=0.1, affine=True, track_running_stats=True)
    )
  )
  (open): ConnectingLayer(
    (conv): Conv2d(3, 16, kernel_size=(3, 3), stride=(1, 1), padding=(1, 1))
    (act): ReLU()
    (normLayer): BatchNorm2d(16, eps=0.0001, momentum=0.1, affine=True, track_running_stats=True)
  )
  (linear): Linear(in_features=64, out_features=10, bias=True)
)
